pytorch_lab/cnn.pth (torch, 251264 bytes, 10 tensors)

conv1.weight f4 [6, 3, 5, 5]
000000 b7 01 ce 3d 24 76 ad bd 9c 8f 25 3d 40 17 d2 bd
       0.10058921 -0.08469799 0.04042016 -0.10258341
000010 31 6a b1 bd 88 cc b2 3d 02 35 fc bc c9 99 03 be
       -0.086628325 0.087304175 -0.030786995 -0.12851633
000020 a7 c4 b3 bd 33 09 85 3c 3e c0 ba 3d 53 d8 34 bb
       -0.08777743 0.016239738 0.091186985 -0.002759476
000030 43 05 11 3c 3f 9d 5a be da 24 c3 bc 3f 34 43 bd
       0.008851352 -0.21349047 -0.023821283 -0.047657248
000040 01 2e 93 bd 21 25 cf bd 04 e7 cd bd f1 46 7f 3c
       -0.07186509 -0.10114504 -0.10053828 0.015580879
000050 00 a6 70 bd eb 27 10 be 79 30 9d bd 3f 50 e0 bd
       -0.05875206 -0.14077727 -0.07675261 -0.10952806
000060 22 19 42 3e 11 0e ce bd be 0e 19 be 35 c7 e5 bb
       0.189549 -0.10061277 -0.1494703 -0.0070122727
000070 8d 54 34 bd 21 57 70 bc 7c ae c4 bd 44 ea 74 bd
       -0.044025946 -0.014669211 -0.09603593 -0.059793726
000080 d4 62 da bd 42 fe ea 3c c3 63 24 be 07 4c b4 3d
       -0.10663381 0.028685693 -0.16053681 0.088035636
000090 b3 92 45 bd cc 74 4f be f1 ee dc bd 06 5e 35 bd
       -0.048235606 -0.20259398 -0.10787762 -0.04427912
0000a0 3e 34 c8 3c 4f 0e 38 bd ec 2b 5d be 1d f5 54 be
       0.024438974 -0.04493552 -0.21598786 -0.20796628
0000b0 dc 84 8f 3d 21 da 11 bd 75 4a 71 be 9f 44 4e be
       0.07007763 -0.035608415 -0.2356356 -0.20143364
0000c0 8d e0 43 be 74 1c 5b 3d 7c e1 41 3d 95 37 3d bd
       -0.19128628 0.053493932 0.04733418 -0.046195585
0000d0 2e 04 91 3d 4b 25 a5 3c be 4b 9c bd f2 b1 2b bd
       0.07080875 0.020159384 -0.07631634 -0.04191775
0000e0 f0 3a c7 bc b8 12 e0 bc 6c 03 34 3d 38 6c 62 3c
       -0.024320096 -0.027352676 0.043948576 0.013819747
0000f0 39 bc ef 3c 8a fc 16 bd 08 f7 0e be 0a fa c4 3b
       0.029264556 -0.036861934 -0.13961422 0.0060112523
000100 70 17 74 ba de 66 1c 3d 04 1b 42 3d a0 5b 6e bd
       -0.0009311354 0.03818404 0.047389045 -0.05819285
000110 50 46 05 be e5 bb 0b 3d ad aa 22 be 5c 63 1c be
       -0.13015103 0.034114737 -0.1588542 -0.15272278
000120 03 2f 57 3c 94 9d e2 bc b6 47 40 3e 74 37 17 3e
       0.013133767 -0.02766303 0.18777356 0.14767247
000130 5a fc c8 3d 1f 64 0c 3e ac 87 7b 3e d6 72 13 3e
       0.09813757 0.13710068 0.24563473 0.14399275
000140 97 86 72 3d d6 59 89 3d 75 4c aa 3d 7a ee 5e 3e
       0.059210386 0.06706588 0.08315364 0.21770659
000150 d9 e2 3f 3e 62 9f b7 3d 14 44 d2 3d 34 0b 01 3d
       0.1873888 0.08965947 0.10266891 0.031504825
000160 ad a2 4f 3e b8 9d c5 3d 9f 8c 75 3d e1 05 c8 3d
       0.202769 0.09649223 0.05994856 0.09766746
000170 61 e2 47 bd d8 f3 0d 3e 09 50 9f 3d fe d6 18 be
       -0.048799876 0.1386255 0.07778937 -0.14925763
000180 75 7b 42 be 54 05 57 be 88 8d 35 be d3 db ac bd
       -0.18992408 -0.20998126 -0.17729771 -0.08440366
000190 21 d8 f3 bd 55 23 26 bd 32 0c 15 3d 88 70 b7 bd
       -0.11906458 -0.04056104 0.036388583 -0.089570105
0001a0 4b f3 97 3d fe f0 76 be 4c 09 95 be 79 3b 38 bd
       0.07419451 -0.24115369 -0.29108655 -0.044978593
0001b0 8d d2 af bd 57 88 00 bd 27 22 32 be 46 61 49 be
       -0.08585081 -0.031380024 -0.1739584 -0.19666013
0001c0 7d fc 50 be a1 48 a1 bd f7 10 1d 3d 17 48 27 be
       -0.20408817 -0.07875181 0.038346257 -0.16336094
0001d0 1b f9 61 be 77 d0 1b be c7 04 67 bc 89 51 3b 3d
       -0.22067682 -0.15216242 -0.01410026 0.045732055
0001e0 5f 09 0e bc c8 a0 76 be b5 31 9c be f9 13 00 be
       -0.008669226 -0.2408477 -0.30506673 -0.12507619
0001f0 df f9 ed 3d 0d c7 f0 bd 6f 2e e6 bc ed bc 95 bc
       0.11619925 -0.11756716 -0.028098313 -0.018278563
000200 15 21 da 3d 64 08 09 3e bc 31 e9 bd 25 10 23 be
       0.10650841 0.13382107 -0.11386439 -0.15924127
000210 df 70 1e be d8 59 0f bd 41 7b 27 3e 95 a8 48 bb
       -0.15472744 -0.03499779 0.16355611 -0.003061806
000220 81 b1 40 be fd 6c 53 be 92 50 ae bb bb 1b 79 3e
       -0.18817712 -0.20647044 -0.0053196633 0.24326985
000230 cb d1 00 3e da 50 8f bd 7b 00 08 be fe e4 0b 3e
       0.1258003 -0.06997843 -0.13281433 0.13661572
000240 f9 24 86 3e 4b 58 01 3e de fa 2c 3e 64 ac 16 be
       0.26200083 0.12631337 0.16892573 -0.147142
000250 da 1e 7e bc 49 48 0f 3e 7e ed d3 3d 2a ac 43 3d
       -0.015510285 0.13992418 0.103480324 0.04777161
000260 c8 bb 30 bd f1 f5 60 bd c1 86 8e bd 81 02 6c 3e
       -0.043147832 -0.054922048 -0.06959296 0.2304783
000270 b5 51 48 3e 81 fa 32 3b ed d4 2c bd e6 24 0d be
       0.19562419 0.0027309956 -0.04219525 -0.13783607
000280 75 16 8d 3d 01 91 b4 3d df d8 dd 3d 2d 88 5b ba
       0.06889049 0.0881672 0.108323805 -0.0008374479
000290 2b c4 5d 3c 6a bd 17 3e ef 18 4e 3d 7f 00 e5 3d
       0.01353554 0.1481835 0.050316747 0.11181735
0002a0 0c 88 c1 3d f1 e4 a5 bc ad 77 55 3d 84 47 83 3c
       0.09449777 -0.02025077 0.052116085 0.016025312
0002b0 a9 b9 07 3e 81 26 f1 3c a7 bd b6 bd 0b 62 c4 3d
       0.13254417 0.029437305 -0.08922892 0.09589013
0002c0 e8 16 92 bb 66 d8 c9 bd a8 e6 32 be c8 8d 1b be
       -0.004458297 -0.09855728 -0.17470801 -0.15190804
0002d0 34 41 39 3d 93 2a 16 3d b9 17 b8 3c 97 c6 e5 bd
       0.0452282 0.036661696 0.02247225 -0.11219519
0002e0 7f f3 b9 bd 60 97 17 3e 67 24 14 3e 82 7f 1a bd
       -0.09079646 0.14803839 0.14467011 -0.037719257
0002f0 b0 ed 0b be 53 04 93 be 74 18 ed 3c c8 91 3b 3d
       -0.1366489 -0.28714237 0.028942324 0.045793325
000300 21 37 b6 bd ab 24 a5 bd ac eb 1b be 21 30 7e bd
       -0.08897234 -0.080636345 -0.1522662 -0.062057618
000310 0f fb b1 bc 1e ea 8f bd c9 c0 36 bd 49 f4 85 bd
       -0.02172616 -0.07027076 -0.044617448 -0.06540734
000320 28 a0 8a 3e b0 63 75 3e 0c a7 b8 bc 99 88 37 be
       0.27075315 0.23963809 -0.022540592 -0.17923202
000330 e7 43 de bd 41 63 91 3e 99 c6 85 3e 71 21 9c 3c
       -0.10852795 0.28396037 0.2612808 0.019058915
000340 4d f2 51 be bb 3f 5c be 98 c4 99 3e e4 c8 a4 3e
       -0.20502587 -0.21508686 0.30032802 0.32184517
000350 2a 66 b2 3d 7a 92 c8 bd 3b da 4c be 43 0b 67 3e
       0.087108925 -0.09793563 -0.20005123 0.2256289
000360 b4 25 71 3e cb a1 cf 3d 42 f8 bb bd 1e 35 0a bd
       0.23549539 0.101382814 -0.09178211 -0.033742063
000370 70 ef 31 3e 63 ee fe 3d b0 5f 40 3d d7 7a 1a 3d
       0.17376494 0.124478124 0.046966255 0.037714805
000380 cb 0a c4 bd 3e d3 9b bd 87 b3 56 bd 43 35 01 be
       -0.09572371 -0.076086506 -0.052417304 -0.12617974
000390 fd 41 f4 bc 62 7d cd bd d6 b6 ae bd 67 96 95 bd
       -0.029816622 -0.100336805 -0.08530967 -0.073040776
0003a0 a0 da da bd cd 9d 91 be 53 a8 52 be 22 9b dc bd
       -0.10686231 -0.28440705 -0.20572023 -0.10771777
0003b0 b3 57 e5 bd a7 27 4a be ec 59 8c be 22 81 72 be
       -0.11198368 -0.19741689 -0.27412355 -0.23682073
0003c0 16 82 16 be 7d 3e 75 be 56 a5 3e be 12 3f 1c be
       -0.14698061 -0.23949619 -0.18617758 -0.15258434
0003d0 bf 5c 0a bc ed 73 1c be 03 e9 a2 bd 2e 82 10 be
       -0.008444964 -0.15278597 -0.079546 -0.1411216
0003e0 03 79 a6 bd 22 81 50 be b5 62 43 bd fe cc 8f 3c
       -0.0812855 -0.2036176 -0.047701556 0.017553803
0003f0 db 27 96 3d c5 89 e1 ba 98 a4 d7 3c 89 aa 25 3d
       0.073318206 -0.0017207196 0.026323602 0.040445838

conv1.bias f4 [6]
000000 2b 90 b9 3e a6 b1 b4 be 7c d5 7a 3e 52 eb 27 3f
       0.36242804 -0.35291785 0.244955 0.65593445
000010 cb 4f 9b bd b1 b0 e4 3e
       -0.07583579 0.44666055

conv2.weight f4 [16, 6, 5, 5]
000000 e5 1a 31 3d 3c 3f 38 bd 10 71 bc bc 27 35 de bd
       0.04323854 -0.04498218 -0.023003131 -0.10849982
000010 84 87 80 bd 61 7e 62 3d 74 1d 61 bd 17 49 eb bd
       -0.062758476 0.055296306 -0.05495973 -0.1148855
000020 d7 9c 1a 3d e8 23 ad bd f2 1f b0 bd 58 a7 85 3d
       0.03774723 -0.08454114 -0.08599843 0.06526059
000030 09 6c 87 bc ef 89 aa bc 8e 4d 1d be f4 9f 80 3d
       -0.016531007 -0.020817725 -0.15361616 0.06280509
000040 d7 22 05 3d a4 7c fa 3d cd 54 8b 3d 0a fc 70 bd
       0.03250393 0.122308046 0.06803284 -0.058834113
000050 c2 e8 0f 3d b1 6f 04 bd 18 b5 fa bc 94 39 9c bd
       0.035134085 -0.03233308 -0.03060393 -0.0762817
000060 fc 3d 18 be e9 30 15 3d c4 14 15 bc 54 c8 0f bd
       -0.14867395 0.036423597 -0.009099189 -0.035103157
000070 ab 3b d4 3c a8 cc b7 ba 76 b4 af bc 92 d7 6e bc
       0.025907358 -0.0014022784 -0.021448355 -0.014577763
000080 5d 91 21 bb 97 bd 66 bd a8 9e 51 3d 54 0f 84 bd
       -0.0024653294 -0.05633315 0.051176697 -0.06448236
000090 fa 95 ff bc d5 ea f8 bd 6b 05 c1 bd 00 39 d0 3b
       -0.031199444 -0.12154166 -0.094248615 0.006354451
0000a0 6a 61 86 bd 59 85 d0 bd d3 99 04 be 34 55 e2 ba
       -0.06561549 -0.10181684 -0.12949304 -0.0017267824
0000b0 26 6d b7 3c 01 6b e4 bd 10 4a eb bd ac 1f 0c bc
       0.022390913 -0.11153222 -0.11488736 -0.008552473
0000c0 bb 18 17 be c6 a8 f5 b9 0d c5 0a bd f3 16 02 be
       -0.14755528 -0.00046855788 -0.03387933 -0.12704067
0000d0 b6 a1 de bd d2 bf ce bd ea 87 c5 bc 05 9e ef bd
       -0.10870688 -0.100951806 -0.02411266 -0.11700062
0000e0 57 23 c3 bd 21 c3 ed 3c f3 64 ed bd 75 c4 2b 3c
       -0.09528225 0.029023709 -0.1159152 0.010483851
0000f0 11 84 a2 bd ae ba 2d bc 5f b7 08 3d 41 7e 62 bc
       -0.07935346 -0.01060359 0.033378 -0.013824047
000100 31 66 b2 3d 3e a2 c5 b9 11 32 02 3d db e1 6b 3d
       0.08710898 -0.00037695648 0.03178603 0.05758844
000110 fa 83 ca bd 73 03 c9 3d 86 d3 79 3d 57 cd 8f bd
       -0.09888454 0.09815111 0.06099274 -0.07021587
000120 79 1b 23 bd 26 17 8a 3c df 85 97 3d 6c 30 04 be
       -0.03982112 0.016856741 0.07398581 -0.12909096
000130 f1 06 44 bd 24 46 f1 bd 96 da e3 bd fc 94 22 3d
       -0.047858182 -0.117809564 -0.11125676 0.039692864
000140 6a 1c 2a bd b5 07 fb bd 74 52 a2 39 5d 6c 77 bd
       -0.041531004 -0.122573294 0.0003096048 -0.060406078
000150 57 13 27 3b d8 ef 0f be 06 cd ff ba 19 0d 52 bd
       0.0025493705 -0.14056337 -0.0019516058 -0.051282022
000160 53 9b 02 3c aa cb 0f 3e b6 a8 19 be 12 0c 02 be
       0.0079716025 0.14042535 -0.15005764 -0.12699917
000170 d1 4f 09 bd 77 28 59 3d 08 67 c0 3d 47 40 3d be
       -0.033523384 0.053017106 0.09394652 -0.18481551
000180 96 3f cb bd 8e 65 8b bd 2e f8 12 bd 95 4b 96 bd
       -0.099242374 -0.068064794 -0.035881214 -0.07338635
000190 93 c4 a3 bc b1 6d b0 3c 09 ac b4 3c 27 cf 05 3d
       -0.019991195 0.02153668 0.022054689 0.03266826
0001a0 c7 e5 56 3d 16 da f1 bd b9 d8 ec 3c 69 93 c8 3d
       0.052465227 -0.11809175 0.028911935 0.09793741
0001b0 a3 00 b1 3d ec 24 8d bd 56 4d 67 bd 63 c2 c1 bc
       0.086426996 -0.06891808 -0.056470238 -0.023652261
0001c0 90 3b 2c 3e 04 71 6d 3d 2c 1e fb 3c 53 ee 78 ba
       0.16819596 0.05796911 0.030654036 -0.00094959623
0001d0 0f b0 75 3d 57 c2 97 bc 68 40 ba 3d 57 ee 38 3d
       0.059982356 -0.018525286 0.09094316 0.045149174
0001e0 cf c7 78 ba ac e7 d2 bd de c1 ab bd a7 6d 1b bd
       -0.0009490223 -0.10298094 -0.083865866 -0.03794637
0001f0 ae 47 7c 3d dd 66 53 3e 71 96 ee 3d 61 59 00 3e
       0.061591797 0.20644708 0.11649788 0.12534095
000200 a3 5c 59 3e 38 2a 81 3d 50 e8 89 3e 19 22 fe 3c
       0.21226744 0.06306881 0.26935053 0.031022118
000210 29 4f 8d 3e bd 06 64 3e bd 9d 0f 3e 6f 8b 9c 3d
       0.27599457 0.22268195 0.14025016 0.07643782
000220 bf 5f 42 3e 2e 78 79 3e b8 18 53 3d ce 01 16 3e
       0.18981837 0.24362251 0.051537246 0.14649126
000230 8f 23 0a 3e ed ba 07 3e 33 52 f9 3d d0 f0 03 3d
       0.13490127 0.132549 0.121738814 0.03221208
000240 a1 cc 1e 3e ab aa 6a 3e 9e 80 28 3c 16 83 8c 3d
       0.15507747 0.22916667 0.010284571 0.0686094
000250 b2 67 87 3d 86 b6 17 3e b3 32 35 3d 91 a2 3b bd
       0.06611575 0.14815721 0.044237804 -0.045809332
000260 54 83 4d 3d 5a 9c a4 bc 15 dd 2d bd 10 ae 5e bb
       0.050174072 -0.020094085 -0.04244717 -0.003397826
000270 3c ad b0 3d 85 90 a3 3d 7e a8 b8 3d 6f 41 3f 3c
       0.08626792 0.07986549 0.09016512 0.011673315
000280 1d c2 45 3d b0 dc 99 3d 58 94 cf 3d f6 c3 01 3e
       0.048280824 0.07512796 0.10135716 0.1267241
000290 78 08 c9 3d 5c b8 b0 3c 26 07 2c 3d b1 96 23 3d
       0.098160684 0.021572284 0.041999005 0.039938632
0002a0 b4 39 68 bc 33 3c f7 3c 89 21 dd bb 47 28 1a bd
       -0.014173914 0.030180072 -0.0067483825 -0.037636068
0002b0 3d 97 01 bb f9 5e bd 3d 27 74 68 3d 2a 1c b0 bd
       -0.0019773983 0.0924663 0.056751397 -0.08599122
0002c0 d2 22 83 bc 45 ff 3c bd a1 af 18 bd 4f 67 49 bd
       -0.016007815 -0.04614188 -0.037276868 -0.04917079
0002d0 47 ae b9 bd 22 c5 38 bd 78 8e 76 bd 54 2d 89 3c
       -0.09066444 -0.045109876 -0.060194463 0.016745247
0002e0 1e f5 c8 bc dd 5c e9 bd 80 8a c4 bd f7 2d 4d bd
       -0.024530943 -0.113946654 -0.09596729 -0.050092664
0002f0 03 6c 56 bc 5f d3 96 bd 6b 81 03 be e5 86 af bd
       -0.013087275 -0.073645346 -0.12842338 -0.08570651
000300 cb 83 8d bd 49 df 8c bd 77 49 c0 bd 96 67 e9 bc
       -0.06909903 -0.06878526 -0.09389012 -0.028491776
000310 a3 3c 8e bd bf b0 73 bd d2 2b bc bd 20 3f b7 bd
       -0.06945159 -0.05949473 -0.091880456 -0.08947587
000320 bc ea 01 3d 86 d8 80 bd 3d 66 41 3c 64 55 69 3d
       0.031718 -0.062912986 0.011804161 0.0569662
000330 ba 94 94 3c b8 dc 51 bd fa 3f 03 bc 27 f6 2c bd
       0.018137325 -0.051235884 -0.008010859 -0.042226937
000340 c7 d6 cf bd d0 05 96 bc d4 6a 4a 3d 7d 18 3b bd
       -0.101483874 -0.018313318 0.049418285 -0.04567765
000350 82 08 1d 3d ae a7 1b 3d ce 11 44 3d 9f 7a 92 bd
       0.03833819 0.03800171 0.047868542 -0.07152294
000360 96 e0 ba bd 9c b1 36 bd 90 ca 11 3c a2 0b 11 bd
       -0.091248676 -0.044602975 0.008898392 -0.035411485
000370 73 66 86 3d 67 d4 4c 3c a4 76 fd bd cc ce 74 bd
       0.065625094 0.012501813 -0.123761445 -0.05976753
000380 53 75 fe bd ea c5 4c bd a7 c6 82 3c e0 0c 98 bd
       -0.124247216 -0.049993433 0.015963865 -0.07424331
000390 18 76 16 bd e9 37 6f bd 9d 32 98 3b 32 03 af bc
       -0.036733717 -0.05840293 0.0046447054 -0.021363828
0003a0 53 f5 63 bd 81 8d 2e 3d 20 b3 7d 3c 30 6d c2 3d
       -0.05565388 0.042615417 0.015484601 0.09493482
0003b0 15 c6 97 bb 8d 08 88 3c 41 99 9c 3d c6 eb 40 3d
       -0.0046317675 0.01660564 0.07646418 0.04709985
0003c0 ed 02 cc 3d 9e 30 81 3d af 3c 5c bd 8a cd 25 bd
       0.099614955 0.06308101 -0.05376881 -0.04047922
0003d0 61 58 b6 bb 5c 44 f8 3c 43 6b c8 3b b4 a0 5d bd
       -0.005564735 0.030306034 0.006116302 -0.054108337
0003e0 8d 05 0b bd 92 3b ab 3d e5 38 06 3e 3d c5 cd 3d
       -0.03394084 0.083609715 0.13107641 0.10047386
0003f0 93 b6 ca 3d 11 dc c7 3d 11 9b 3d 3e 8e 2e 12 3e
       0.098981045 0.09758771 0.18516184 0.14275572

conv2.bias f4 [16]
000000 0c 91 91 3e 31 b2 b1 3d b4 58 c8 3d 11 18 5c be
       0.28430974 0.086765654 0.09782544 -0.21493556
000010 16 26 b5 be f6 65 97 3d c0 f6 37 bd 68 84 8c bd
       -0.3538062 0.073924944 -0.044913054 -0.06861192
000020 1b fc 49 bd fa d7 2e bd b0 5f fa 3c 48 f1 02 bd
       -0.049312692 -0.04268644 0.030563205 -0.031968385
000030 eb 6f ac bd 2e 2a 54 3e 08 dc 18 3b eb 58 e6 be
       -0.08419784 0.20719215 0.0023324508 -0.44989714

fc1.weight f4 [120, 400]
000000 e5 8c da bc 03 4c f3 bc 10 d6 11 bd 4c 84 ae bc
       -0.026678512 -0.029699331 -0.035604537 -0.021303318
000010 47 06 e2 bb ac cf 4a bb a6 b9 db 3b 5c ce 05 bc
       -0.006897721 -0.0030946536 0.0067054806 -0.008166876
000020 37 26 ab bc 8e f8 a5 3c a1 54 5d bd 0d bf 26 3d
       -0.020892246 0.020260122 -0.054035787 0.040709544
000030 93 ed d9 3c e7 8f 0e 3d 45 ec 10 bd 6e e9 47 bd
       0.026602542 0.034805205 -0.035381574 -0.0488066
000040 6d fa 04 3d f6 1e 39 bd 4d 10 50 bd 57 12 92 bb
       0.032465387 -0.045195542 -0.050796796 -0.0044577527
000050 0a 4e a1 3a 06 a4 51 bc 79 d8 d6 3c 96 84 ff bc
       0.0012306583 -0.012795454 0.02622627 -0.031191152
000060 5d 83 00 3d 3c c5 21 3c f2 03 fb 3c fa 5d 80 bb
       0.031375278 0.0098736845 0.03064153 -0.003917453
000070 93 69 8d 3b 56 cf 31 3c 12 17 14 bd a8 82 84 3c
       0.004315564 0.010852655 -0.036154814 0.016175583
000080 d5 2e 09 3d 1d f1 95 bb 54 13 f0 bc 1b 0c 13 bb
       0.033491928 -0.004575862 -0.029306091 -0.0022437635
000090 93 60 90 bb 78 67 67 bc 74 19 5b 3b 09 24 bd 3b
       -0.004406044 -0.01412379 0.003343192 0.005772118
0000a0 e5 c2 93 bc fc 9d c7 3c f7 d9 82 bc 40 92 c2 bc
       -0.018037269 0.024367325 -0.015973074 -0.023751378
0000b0 d6 a5 3a bd 21 06 b6 3c dc 2a ee bc 40 f6 32 3d
       -0.04556831 0.02221972 -0.029073171 0.043691874
0000c0 5b 64 f5 bc 43 1d 32 bd aa c0 03 bd 8a b3 07 3d
       -0.02995508 -0.043484937 -0.03216616 0.033130206
0000d0 b9 31 01 3d 58 f9 e7 bc 5b dc 3e bd d2 d2 d1 bc
       0.03154156 -0.028317139 -0.046596866 -0.025613222
0000e0 fa 12 05 3d 7f 97 6f 3c a0 fa 54 3c e9 da 3f bc
       0.0324888 0.014623522 0.012999207 -0.011709907
0000f0 e9 6d 64 3c 5a d5 c3 bc 11 30 d3 bc 3e e0 ed bc
       0.01394222 -0.023905445 -0.025779756 -0.029037591
000100 08 2b b6 bc 46 b5 e1 3c 3b b0 39 3d 45 1a 42 3d
       -0.022237316 0.027552258 0.045334082 0.047388334
000110 bd 0e 9f bc 3c 4d 46 3d e3 ad 82 3c 03 8f d4 bc
       -0.019416207 0.0484135 0.015952056 -0.0259471
000120 7f 25 24 bc 90 e9 b6 3b b9 a4 32 3d ac 11 f1 3c
       -0.010018705 0.005582042 0.043614123 0.029427372
000130 e4 c9 77 bc 4d e2 11 bc cd f9 2f 3d 12 58 31 bd
       -0.015123818 -0.008904052 0.042962838 -0.04329688
000140 f7 e7 bb 3c 06 87 00 3d da 72 91 bc 84 00 25 bd
       0.022937758 0.03137877 -0.01775496 -0.040283695
000150 d7 4a e6 bc f4 ad 6d 3c 94 3a 64 bd 05 61 8c 3c
       -0.028111858 0.014506806 -0.055719927 0.017136106
000160 d5 6f 13 3d 14 92 34 bd d6 8d c1 3a c5 6b 08 3d
       0.035995323 -0.044084623 0.0014767002 0.033305902
000170 d8 05 c9 3c 22 16 03 3d f3 26 fb 3b 83 00 1b bd
       0.02453892 0.03200353 0.007664555 -0.037842285
000180 3f 5c a8 3c 11 a4 44 bd 12 45 b7 3b 57 59 34 bd
       0.020551799 -0.04800803 0.0055929506 -0.044030514
000190 70 47 1d 3b c0 2c 1e 3a 10 fb 72 3b 85 d0 02 3c
       0.002399888 0.000603389 0.0037075914 0.007984285
0001a0 16 c9 38 bc 10 93 b7 bc 53 32 a3 bb 36 e3 d6 3c
       -0.011278411 -0.022408992 -0.0049803643 0.02623139
0001b0 40 b0 2e bc 13 d7 52 bd c4 92 0f bd 07 2d c7 3b
       -0.010662138 -0.051474642 -0.035052076 0.0060783657
0001c0 2c 1d 2a bd 8c 3f 55 3d 16 44 31 bd 13 46 ae bc
       -0.041531727 0.052062556 -0.043277822 -0.021273648
0001d0 65 55 ff 3c 02 ba a3 3b cf ee e8 bc eb 0f bc 3b
       0.031168649 0.004996539 -0.028434185 0.0057392023
0001e0 dc 2a 34 bd 64 dd 0d bd 46 79 6a bc 54 cf 59 bd
       -0.043986186 -0.034634963 -0.01431114 -0.05317624
0001f0 81 e0 e6 bc ee 56 4e 3d b3 26 bb bc 3c ce 57 bc
       -0.028183224 0.05037587 -0.022845602 -0.013171729
000200 28 bf 22 bd 16 32 ab 3c 4f 22 19 3c 5f af 38 bd
       -0.039733082 0.020897906 0.009346559 -0.045089122
000210 2d a8 c4 3c 5b fc 84 bc 09 98 8e 3c 51 b7 c6 bb
       0.024005974 -0.016233614 0.01740648 -0.0060643335
000220 8e c8 ba bc 39 25 fb bc ee 6b 3b bb de 21 70 bc
       -0.02280071 -0.030657398 -0.0028598267 -0.014656512
000230 93 f2 6a 3c ab 6d 84 bc f0 15 c8 3c 1c c5 53 3d
       0.014340061 -0.016165575 0.024424523 0.05170165
000240 db aa b6 3c 41 f2 49 bd 2f 52 a7 3c db 48 c5 3c
       0.022298267 -0.049303297 0.02042493 0.024082592
000250 46 18 b3 bc 2f e0 5f 3c c5 2c 3d 3d 50 ba b5 3c
       -0.02186216 0.013664289 0.046185274 0.022183567
000260 ca 83 08 3d 78 92 59 3d f3 c5 2f 3c 76 fe d9 bc
       0.03332881 0.0531182 0.010728347 -0.026610594
000270 aa 19 4d 3d aa 89 f6 bb d9 36 00 3d b1 4d 13 bd
       0.050073303 -0.007523735 0.031302307 -0.035962764
000280 40 c0 88 bc 7f 4a 21 bd cb 18 fe bc 71 45 ec bb
       -0.016693234 -0.039377686 -0.031017682 -0.0072104265
000290 24 a6 82 3c 69 28 b0 b8 dc 9f 1f bd 45 f9 b1 bc
       0.015948363 -8.399861e-05 -0.038970813 -0.021725306
0002a0 7d 8b 91 bc 78 cf d7 3c 2d d7 0e bd 7f f9 7f 3c
       -0.017766709 0.026344046 -0.034873176 0.015623449
0002b0 e2 25 fc bc 7b b3 cf 39 b2 c9 1a bc 9d f1 1c bb
       -0.030779783 0.0003961584 -0.009447502 -0.0023947724
0002c0 ef 94 4a 3d ae b0 c3 bc 77 c2 8f bc ac 67 3d bc
       0.04945844 -0.023887958 -0.017548783 -0.011560362
0002d0 c8 08 fc bc e0 8c 36 3d 19 82 91 3c d0 0e 30 bd
       -0.030765906 0.044567943 0.01776223 -0.042982876
0002e0 1e 05 c5 3c 6d 58 3b bd 01 c1 a3 3c bd cf e5 bc
       0.024050292 -0.045738626 0.019989492 -0.028053159
0002f0 39 db 9d bc d4 66 2f 3b 1e fd de b9 45 5f 42 3c
       -0.019269573 0.0026764171 -0.00042531727 0.011863534
000300 d5 5e 9f bc df 0e 3e bd 35 74 1c bd d0 ca e8 bc
       -0.0194544 -0.0464009 -0.03819676 -0.028417021
000310 55 c7 4b bc d0 6c 2d 3c 66 67 af bc e6 ba d3 3c
       -0.012437661 0.010585025 -0.021411609 0.025845956
000320 42 31 ba 3c 87 6c d0 3c 5e c4 5e 3c a7 1f 0b 3d
       0.022728566 0.025442375 0.013596622 0.033965733
000330 b8 bf 56 bc 26 7b 19 bb cb de 30 3c 33 c2 35 3c
       -0.013107233 -0.002341935 0.0107953055 0.011093664
000340 61 f4 10 bd a5 ef c7 bc d3 64 26 bd 30 51 72 3c
       -0.035389308 -0.024406264 -0.040623497 0.014789864
000350 78 21 3f bb d1 0e ed 3c 26 50 cc bc 71 43 28 3d
       -0.0029164236 0.02893773 -0.024940562 0.041079942
000360 55 1e 0a bd e0 b7 1d 3d 41 20 06 3d ab e6 63 bc
       -0.033720333 0.038505435 0.032745603 -0.013909976
000370 0f a1 87 3c e9 21 c9 3c 45 2f d2 3c 95 42 8e 3b
       0.01655629 0.024552302 0.025657305 0.0043414333
000380 a3 5d 37 3b c7 34 05 bd 24 f0 5d bd 6f 85 6b 3c
       0.0027979396 -0.032521036 -0.054184094 0.014375075
000390 8d 86 46 ba 26 8f 00 3c 27 4f 3b bb 6d 88 0f 3d
       -0.000757315 0.007846629 -0.0028581114 0.035042215
0003a0 7e c2 9a 3c 26 da eb 3c 29 5d 48 39 da ab ae bc
       0.01889157 0.028790545 0.00019108191 -0.02132218
0003b0 15 1d 4d bd 7b 03 2b bc bf a3 33 bd b8 7b ed 3c
       -0.050076563 -0.0104378415 -0.043857332 0.028989658
0003c0 97 7d f4 3c ee a0 3e bc d0 53 4b 3d 50 7e bf bc
       0.029845042 -0.011635048 0.049640477 -0.02337566
0003d0 51 95 18 3d 13 9b bb bb 05 7b d1 bc f8 4b e8 bc
       0.037251774 -0.0057252734 -0.025571356 -0.028356537
0003e0 0d e2 33 3c fc 26 1d bd 08 d7 01 bd bc 72 5d bc
       0.010979188 -0.038367257 -0.03169921 -0.013516124
0003f0 86 1f 4c bd e1 ee 04 bc 74 5c 12 bd 04 48 9c b9
       -0.04983475 -0.008113594 -0.0357327 -0.00029808294

fc1.bias f4 [120]
000000 28 ee d7 3c e9 14 0c bd 57 29 ae bb 5c 06 61 bc
       0.026358679 -0.03419963 -0.0053149867 -0.013734426
000010 c0 1b 06 bd 17 19 68 bd 55 18 98 3d 4c 91 6e bd
       -0.03274131 -0.056664553 0.07426516 -0.058244035
000020 90 77 d2 3b b8 2d d3 3d 21 47 5c 3b 49 67 b9 3d
       0.0064229444 0.103114545 0.0033611732 0.09052903
000030 46 3f b1 3c 2b 79 c4 3c ba d2 32 3c 98 18 38 bd
       0.021636616 0.023983559 0.010914499 -0.04494533
000040 d1 1a 33 3b 78 df 8f 39 d7 70 20 bd d1 89 f6 3d
       0.0027329216 0.00027441583 -0.039170112 0.12038005
000050 be b9 5c bd 69 59 33 bd 9b 57 a6 3a c2 3a 4d 3d
       -0.053888075 -0.04378644 0.0012690903 0.050104864
000060 2b 50 fd 3b a6 7e ab bc 39 7e 38 3d 98 b7 ad 3d
       0.007730504 -0.020934414 0.04504225 0.08482283
000070 64 bb 16 3e c6 c1 48 3d 75 81 a1 bd 3a 02 13 bd
       0.14719921 0.04901292 -0.0788602 -0.035890795
000080 3a d9 5f bd bb f6 34 bd 1e 6a fe bc 6e 58 e6 3d
       -0.054650523 -0.044180613 -0.03105646 0.112473354
000090 b1 73 b1 bc cd 0c 8b 3d db c2 99 3c 42 da 8c 3d
       -0.021661611 0.06789551 0.018769672 0.06877567
0000a0 71 e6 53 3c be 3e 9a 3c 9f 14 06 3d 54 97 25 3d
       0.0129333595 0.018828746 0.03273451 0.04042752
0000b0 70 36 1e bd 07 be 7e 3d 62 f2 d7 3d 69 18 72 3d
       -0.038626134 0.062192943 0.10544278 0.05910531
0000c0 a8 79 81 3c 35 dc 9f 3c d7 68 a1 bd 77 29 73 3d
       0.01580508 0.019514183 -0.07881325 0.059365716
0000d0 a4 61 b5 bb 0a ba 33 bd df 77 f1 bc 84 ee e4 3d
       -0.0055353213 -0.043878593 -0.029476104 0.11178306
0000e0 42 7b 7f 3d 79 3e a1 3c 57 50 95 bd c2 30 24 bd
       0.062373407 0.01968311 -0.07290714 -0.04008556
0000f0 7a a4 34 3d 87 c9 62 3d 30 d5 94 bc a4 eb 6d bd
       0.04410217 0.055367973 -0.018168062 -0.058086053
000100 43 43 18 bb 1c d9 23 bd e0 6c 16 bd 06 c6 d6 3c
       -0.002323345 -0.040001974 -0.036724925 0.026217472
000110 e6 59 32 3c 34 ec 47 bd ca 7e 06 3c 13 6c 45 3c
       0.010885691 -0.048809245 0.00820894 0.012049693
000120 87 7a 0f 3d 75 5a 33 bc c7 05 5b 3c 99 95 9a 3c
       0.03502896 -0.01094686 0.013368077 0.018870162
000130 56 f6 0e bd d4 8a 88 bb 5e 58 a2 3d b8 24 be ba
       -0.034902893 -0.00416694 0.07927011 -0.0014506793
000140 53 64 14 3d 1b 75 e0 3d 86 fa cb 3c 06 7c 06 bc
       0.03622849 0.10959836 0.024899732 -0.00820828
000150 2c 90 91 3d 64 c2 ac bb b6 09 da 3d 72 a2 2f bc
       0.07107577 -0.0052721966 0.106463835 -0.010719882
000160 81 b3 0c 3d e8 3d 5c 3d b6 81 00 3d 57 81 0a 3d
       0.034350876 0.053769976 0.031373702 0.033814754
000170 e0 20 af bc ea 26 3c bc 89 76 cd bc d5 e3 56 3c
       -0.02137798 -0.011483887 -0.025080936 0.013115843
000180 c3 74 ba bd 23 1c 8a bc 37 7f 3a 3c 74 ed 6e 3c
       -0.09104302 -0.01685912 0.011382869 0.01458298
000190 04 4f a4 39 2d c1 2c 3c 6f 6f ca 3d ff 08 f6 3c
       0.0003133939 0.010544104 0.098845355 0.030033587
0001a0 81 c3 95 bc dd 8c 1e bd 4c b7 ac 3c 33 c9 38 3d
       -0.0182817 -0.038708556 0.021083497 0.045113754
0001b0 bf 24 01 bd 4d 81 51 bc 1f 2d 5e bd b5 7b 2d bd
       -0.031529184 -0.012787175 -0.05424225 -0.042354304
0001c0 8c 14 c2 bd 84 7f 1e bd ca bb 3b be eb 7c a4 3d
       -0.09476575 -0.038695827 -0.18333355 0.08031639
0001d0 dc 56 f8 3c 34 32 52 3d a2 bc 0c 3d 9b 9e 3a bd
       0.030314855 0.05131741 0.03435958 -0.045561414

fc2.weight f4 [84, 120]
000000 1b 48 76 bc 36 e4 30 3d 38 1c a9 bd 13 be a9 3d
       -0.01503184 0.04318639 -0.082573354 0.08288207
000010 14 b5 83 3d 9f a2 8c bd 68 4b 17 3d 5b 80 bc bb
       0.06431022 -0.06866955 0.036937147 -0.005752606
000020 42 f3 04 3e 4d 3b 62 3c 48 7b 77 3d 25 64 b8 3d
       0.1298342 0.013808084 0.060420305 0.09003476
000030 b4 7a f6 3d 4a 74 bb 3d f0 3d b5 3d 18 8b 40 3d
       0.120351225 0.0915304 0.08849704 0.04700765
000040 ee 88 8c 3d 1d 43 55 bd d0 75 9c 3d 30 31 07 3d
       0.06862055 -0.052065957 0.076396585 0.033005893
000050 e9 09 9e 3d 52 1d eb 3d f9 fa 52 bd 87 82 31 3d
       0.07716734 0.11480202 -0.051508877 0.04333737
000060 63 19 d1 bd 95 1e c4 bd b6 60 86 bc 78 97 e1 38
       -0.1020992 -0.095761456 -0.016403537 0.00010757049
000070 8d fa d3 3d 45 e1 f2 3d 5b cd b9 3d 81 38 2f 3d
       0.10350523 0.11859373 0.090723716 0.042778496
000080 f0 7c b3 bc dd d1 a4 b9 fe d9 a5 bd 4f 7b ad 3d
       -0.02191016 -0.00031436878 -0.08098219 0.08470785
000090 6c 10 38 bc b9 77 8e bc 6c 5c 01 3e 8d ab 9f 3d
       -0.011234384 -0.017391073 0.12632912 0.077963926
0000a0 5f e5 f9 bd 7b 6e 94 3d 5d 37 c8 bc 27 0f a5 3d
       -0.12201952 0.07247635 -0.024440462 0.08059531
0000b0 b0 63 39 bc 83 03 bb 3d 00 86 81 bd b1 94 fc 3c
       -0.011315271 0.09131529 -0.063243866 0.03083262
0000c0 e2 07 9e bd 18 a0 14 ba a7 b9 42 bd 0d ab 86 3d
       -0.07716347 -0.0005669608 -0.047540333 0.06575594
0000d0 e6 aa b0 bd 04 36 0f bc 5b f4 15 3d ce 4c 62 3d
       -0.08626346 -0.008740906 0.03660999 0.055249028
0000e0 49 cf 0e 3d ba c5 34 bd cf e8 6b bd 10 c9 60 bd
       0.03486565 -0.04413388 -0.05759507 -0.05487925
0000f0 da 8a 49 bd f2 d9 4a 3d 6d 66 16 3c a6 bc d5 3d
       -0.049204685 0.049524255 0.009179694 0.104363725
000100 96 39 a5 3c de 11 eb 3d 64 2e ad 3c 71 0f bc 3d
       0.02016906 0.11478017 0.021140285 0.09182633
000110 a0 fb 1a bc 68 94 0b bc 7d 63 02 be 15 3e 96 bd
       -0.009459406 -0.0085192695 -0.12733264 -0.0733606
000120 4a 38 9f 3d 89 e3 98 bc 3d 60 b3 3d 8e f9 ec 3c
       0.07774408 -0.018663185 0.0875859 0.02892759
000130 10 f5 8d bd f1 73 45 bc 25 2f fd ba 55 cb c4 bd
       -0.069315076 -0.012051568 -0.0019316418 -0.09609095
000140 91 74 bb 3c 51 88 d9 3d 85 f0 9a 3d 0a 3b 75 bd
       0.022882732 0.106217034 0.07565407 -0.059870757
000150 be 36 a5 3d 78 5c 0a bc e7 55 ce bd 5a f5 64 bd
       0.08067082 -0.008444898 -0.10074978 -0.055898048
000160 52 9f 41 bc b6 fd b0 bd 13 ab d3 3d 60 5e 0a 3c
       -0.01181777 -0.086421415 0.10335364 0.008445352
000170 72 ab 01 3e 13 61 a7 3c 7e d5 8c bc 5b 21 88 3c
       0.12663057 0.02043203 -0.017191645 0.016617468
000180 7b 45 7b 3c 0c 33 8b bc cf cd a9 bd 40 81 0f 3d
       0.01533639 -0.016992114 -0.08291208 0.03503537
000190 20 ba a3 3d bb fe 91 bd 1a 52 a8 3d 1b e6 d5 bd
       0.07994485 -0.07128664 0.08218785 -0.1044428
0001a0 0f 19 83 bd 5f 67 a7 bd 5e 91 80 bd 6d 28 c2 3d
       -0.06401264 -0.08174013 -0.062777266 0.09480367
0001b0 3d e3 57 bd cd b3 11 3b 0d 92 c4 3d b1 9d 6f 3d
       -0.052706946 0.0022232414 0.095981695 0.058499996
0001c0 ca af a8 bc 95 ad f5 3b f5 e1 a5 bc 04 87 4e bd
       -0.020591635 0.007497499 -0.020249346 -0.05042173
0001d0 b9 23 72 3d db a3 ac 3d f7 bf 57 3d d5 bd a4 3d
       0.0591161 0.084296905 0.052673306 0.0804402
0001e0 d2 14 42 3c 07 bb 88 bd 5e 3c ad 3d 96 0e 90 3b
       0.011845784 -0.06676298 0.0845878 0.00439627
0001f0 11 47 83 3d cd 40 ec 3d 9c be b6 bd 32 bc af bd
       0.06410039 0.11535797 -0.089230746 -0.08580817
000200 6f 50 54 3d 18 b1 8f bd a0 d0 b3 bd 57 13 30 bd
       0.05183452 -0.070162 -0.087800264 -0.042987194
000210 65 ce c1 3c d6 59 a0 3c d7 1a b9 bc ce 75 aa 3d
       0.023657987 0.019574087 -0.022595806 0.08323251
000220 b9 f8 34 3d 92 12 4e 3b f4 09 85 3c 27 aa 38 3c
       0.044182513 0.0031444174 0.016240098 0.011271036
000230 3a 8f 24 3d 9d 85 03 bb 7d 72 9c 3d c5 9b 60 bc
       0.040175654 -0.0020068653 0.076390244 -0.013709013
000240 4e b9 01 bd a8 2b 99 3d 3d d7 45 3d 6f bb 35 bd
       -0.03167086 0.0747903 0.04830097 -0.044368204
000250 dd a4 0f 3d 42 49 99 3b d1 6e ba bb cf 75 d2 bd
       0.035069335 0.0046779225 -0.00568948 -0.102763765
000260 91 2c 6b 3c c4 9c fe 3c 84 ea 4d 3c e9 cd 84 bd
       0.014353887 0.031080611 0.01256812 -0.06484587
000270 9e d6 ef 3b a0 fe 3f 3d ef 34 bd bd a1 32 ec bd
       0.0073192855 0.04687369 -0.09238612 -0.11533094
000280 9a a6 98 3a 24 ac af bc 67 b3 8e 3c 20 47 3b bd
       0.0011646331 -0.021444388 0.01741953 -0.045722127
000290 69 88 d0 3d 79 c3 d9 bd f8 77 a4 bd eb 00 24 3d
       0.10182268 -0.106329866 -0.08030695 0.040039938
0002a0 b8 f4 8f bd 0f ae 85 bd dd fe 4a bd d1 24 83 bc
       -0.07029098 -0.0652734 -0.049559463 -0.016008766
0002b0 5a 8a 6c 3d 67 f0 60 bd 8e 2d 1c bc 1f 84 65 3d
       0.05774913 -0.054916766 -0.009532345 0.056034204
0002c0 20 39 02 3d 8e ca bb bd 19 f0 f3 3d 01 55 38 bd
       0.03179276 -0.091694936 0.11911029 -0.04500294
0002d0 f9 d5 a8 3d 97 a7 71 3c a9 62 62 bd 8e 13 e2 bd
       0.08243937 0.014749429 -0.05526987 -0.11038886
0002e0 2b 76 f8 3c 4b 68 bf 3d f1 1c 88 bd b7 08 11 3d
       0.030329784 0.09346064 -0.06646145 0.0354087
0002f0 c0 9d 5b 3a 7b ea 48 3d 19 78 09 bd 9d 33 b2 bc
       0.00083776936 0.049051743 -0.0335618 -0.021753127
000300 65 f1 b1 bc c5 1a bf 3b c2 7d 06 3d 92 42 88 bc
       -0.021721551 0.0058320486 0.032834776 -0.016633306
000310 ca 36 94 3d 58 ec c9 bd af 46 9b bd 98 bf 3e bd
       0.07237013 -0.09859532 -0.07581841 -0.046569437
000320 24 ea 03 bd 94 1e b7 3d 2e bc 23 bd c0 96 0f 3d
       -0.032205716 0.08941379 -0.039974384 0.035055876
000330 bb 37 e8 3c 54 43 a6 3b 38 3a 00 3c fe 8b 94 bd
       0.028346887 0.005073944 0.00782638 -0.07253264
000340 26 91 38 3d 74 2f 27 3c 3e 35 c9 bd ee 28 86 3d
       0.0450603 0.010204185 -0.09824608 0.065507755
000350 4b 67 d2 bd c7 e1 7c bd 13 95 95 bd 99 a2 f1 bc
       -0.10273608 -0.061738756 -0.07303824 -0.029496478
000360 1c 57 9c 3c 1b 0f 2f bd 08 5c 9d 3c 2a 6b cb bc
       0.019084506 -0.042739015 0.019208923 -0.024831373
000370 ca 0e c4 bd b9 89 c3 3a 08 93 20 3c 1c 00 b2 bd
       -0.09573133 0.0014918364 0.00980068 -0.08691427
000380 d9 f1 a1 bd 5c ea 44 bd 29 c2 95 3c 50 04 37 3d
       -0.07907457 -0.048075065 0.01828106 0.044681847
000390 40 50 57 3b cf 91 12 3c 44 45 58 bd ad d0 fc 3c
       0.003285423 0.008945896 -0.05280043 0.030861223
0003a0 3b c8 24 bd 07 de 96 3d 04 12 81 3d 67 1e 33 bd
       -0.040230017 0.07366567 0.06302264 -0.043730166
0003b0 82 bc 39 bd 43 75 9b bd 5a ff 59 bd 14 74 15 3d
       -0.04534579 -0.07590725 -0.053222038 0.036487654
0003c0 29 73 82 bd d8 f3 a0 3d 4d 2f 6a bd bc 36 d6 bd
       -0.06369621 0.078590095 -0.057174016 -0.104596585
0003d0 33 04 91 3d c0 d7 1c 3d 20 fa c3 3b 36 0e a1 bd
       0.07080879 0.038291693 0.005980745 -0.07864039
0003e0 cd ba b3 bd 00 f6 89 bc c9 9a e3 bc 3c 14 f9 3d
       -0.08775864 -0.016840935 -0.027783768 0.121620625
0003f0 d2 74 67 bd 64 cb 72 3d 97 b6 87 3d 4c 4b 13 be
       -0.056507893 0.059276 0.06626623 -0.14384192

fc2.bias f4 [84]
000000 39 b5 ae 3c b6 e4 f0 bc 8a dd 07 3e d8 84 76 3e
       0.021326648 -0.029405933 0.13268104 0.24074113
000010 ee 0f b0 bb e6 a6 4a 3d c8 a7 65 3d 72 d3 05 3e
       -0.0053729927 0.049475573 0.05606821 0.13068941
000020 59 f4 8f bd 37 7c 75 3e e6 dc d0 3d ba 6e 37 bd
       -0.070290275 0.23973165 0.10198383 -0.04478333
000030 da 31 81 3c 08 90 6f 3c 3c 16 27 bd 13 84 ee 3d
       0.015770841 0.014621742 -0.04079269 0.11646285
000040 38 49 0f be fb 8a c4 bc 86 a2 ff bc 81 58 aa bd
       -0.13992774 -0.023992052 -0.031205427 -0.08317662
000050 eb 59 a5 bd 3a df b2 3d f2 6a 41 bc 55 8b f9 bd
       -0.08073791 0.08733983 -0.011805283 -0.121847786
000060 ea fd a6 3d a7 68 ff 3b da 43 91 3d da 07 38 bd
       0.08153899 0.007794458 0.0709302 -0.044929363
000070 9a db d6 bd 4d 11 b2 bd 50 03 85 3d 83 67 57 bd
       -0.104911044 -0.08694706 0.064947724 -0.05258895
000080 e7 b8 2a bb ce 13 2f 3d 21 a4 5a 3e 26 b3 1b 3d
       -0.0026050152 0.042743497 0.21351673 0.038012646
000090 6a ac 4f bb 30 65 ca bc 77 a1 ec bc 52 2b ce 3d
       -0.003168846 -0.024706453 -0.028885586 0.100668564
0000a0 49 92 22 bd f8 9b c6 bd 39 63 d4 3d 76 fe 28 3e
       -0.03969029 -0.096977174 0.10370488 0.16503319
0000b0 4f db 15 3d a2 fc 0b bc 3c d9 27 bd 9b a5 0e 3e
       0.036586102 -0.008544119 -0.040978655 0.13930361
0000c0 d3 18 59 3d f8 be bd bd 90 92 1c 3e c9 91 cf bd
       0.05300219 -0.0926494 0.15290284 -0.10135228
0000d0 0e ec e5 bc 3c 11 25 3d 2d 80 77 3e 81 09 09 be
       -0.028066661 0.04029964 0.24169989 -0.13382532
0000e0 d7 22 f7 3b c4 2a 7c bd f4 00 16 3d 9a d5 cf bc
       0.007541995 -0.061564222 0.036622003 -0.025370408
0000f0 4d ef b4 3c ef c7 13 bb c7 c0 c1 3a ba 73 33 bd
       0.022086764 -0.002254959 0.0014782184 -0.043811537
000100 a3 4b 04 3e 8d 39 63 3d a9 7e ab bd 6b 84 c1 bd
       0.12919478 0.055474807 -0.08373768 -0.09449085
000110 43 f7 d1 bd d3 31 9a bb 4b 3f 8f bd 89 66 a9 3d
       -0.102522396 -0.0047056465 -0.06994494 0.0827151
000120 11 85 39 bd fc 52 83 bd 8c f6 f7 3d 12 5a 09 3c
       -0.045292918 -0.064123124 0.12107572 0.008383291
000130 49 65 9b 3c ce 92 23 3e a9 ad 0f 3e 01 1b df 3d
       0.018969195 0.1597397 0.1403109 0.108938225
000140 87 d5 33 3d af bc 2c 3c 71 8c c4 bd 25 63 4f 3e
       0.043904807 0.010543033 -0.095970996 0.20252664

fc3.weight f4 [10, 84]
000000 11 5e df 3d 90 93 c0 3d 40 c5 3c 3e 0a 5c 77 3e
       0.109066136 0.09403145 0.1843462 0.24156204
000010 13 15 be 3c 70 6c 7e bd ed 1c 2e bd bc ea a5 bd
       0.023203408 -0.062115133 -0.042508055 -0.08101413
000020 9f 9e 45 3d 10 89 a9 bd c8 dd 7c 3e 45 c6 40 be
       0.048246976 -0.08278096 0.24693978 -0.18825634
000030 5c 2c 31 3b 9e d0 a3 bd 54 db c2 bb 06 76 55 bd
       0.0027034497 -0.07998775 -0.005946556 -0.05211451
000040 b7 e5 08 be 02 25 44 3e 42 2a 93 bd 4c 53 22 3e
       -0.1336888 0.19154742 -0.071857944 0.15852088
000050 57 a8 2b 3e 81 f5 d2 3d 12 55 f3 bd 2f 22 f9 3d
       0.16763435 0.103007324 -0.1188146 0.12164723
000060 38 35 e4 3c 96 63 ce 3d a0 98 f0 3d 3c ce a5 bd
       0.027857408 0.10077588 0.11747861 -0.08095977
000070 9a ce cc 3d a3 fd a2 3b 41 33 2c 3d 69 d5 50 3d
       0.100003436 0.0049740835 0.042041067 0.050984774
000080 03 b1 a7 bd 2c 16 04 3d da f7 53 3e 18 aa 6f bc
       -0.08188059 0.032247707 0.20700017 -0.014627956
000090 a7 7d b0 bd 8c 7a b7 bd 57 8b 2b 3e b0 f4 7d 3e
       -0.08617716 -0.08958921 0.16752373 0.24800372
0000a0 6d 26 23 be c5 79 39 3e 9e 16 d6 bd ac 1a 26 be
       -0.15932627 0.18112858 -0.10453533 -0.16221112
0000b0 9b 1a f8 3d 2d 45 44 be e0 af 00 bc f2 d5 15 3e
       0.121144496 -0.19167013 -0.007854432 0.14632395
0000c0 4e 6b cb bd 38 3a 37 3c a8 cb 29 be b7 81 2f 3c
       -0.09932576 0.011183314 -0.16581595 0.010712079
0000d0 21 95 1f 3e 5c f4 83 bd 77 30 0f 3d f8 dd 98 3e
       0.15584232 -0.06443092 0.03495833 0.2985685
0000e0 b4 42 46 be 2b c9 f4 bd a0 45 92 bd f7 1e 3a bc
       -0.19361383 -0.11952432 -0.07142186 -0.011359922
0000f0 a6 35 2b bd df 9b 04 3d f3 f6 89 3e f4 44 28 be
       -0.04179921 0.032375213 0.2694622 -0.16432554
000100 8c 2a e4 3d 47 67 42 3e 76 f8 a2 3d d4 a1 d0 bd
       0.11140928 0.1898471 0.079575464 -0.10187116
000110 33 2c 43 be 1f 1e 7e be f2 07 f4 ba 0d ea 08 3c
       -0.1905983 -0.24816178 -0.001861809 0.008356583
000120 49 b9 b9 3c 3a 55 c7 3d 26 30 92 3d 91 39 f1 bd
       0.022671359 0.097330526 0.0713809 -0.11778558
000130 da fe 97 bd 79 9b 45 3e dc fd 33 3e ea 54 31 be
       -0.07421656 0.1929759 0.17577308 -0.17317548
000140 f9 fb f3 3d 3c 58 85 bd 15 e7 1c 3e c9 0b 9a 3d
       0.11913294 -0.0651097 0.15322526 0.07521779
000150 06 27 ff 3d 2c af 01 be a8 44 73 be 7f 4c e2 bd
       0.12458615 -0.12664479 -0.23756659 -0.11049747
000160 3d b4 f8 bd 18 bf 90 bd c7 7f bc bd 99 b6 51 be
       -0.12143753 -0.07067698 -0.09204059 -0.20479812
000170 24 84 02 bd 0f d2 51 be b9 fb 2a be 35 36 bc bd
       -0.0318643 -0.20490287 -0.16697587 -0.09190027
000180 bf a4 3f 3e 2d 05 de 3d 84 c3 07 be 86 7b 81 bd
       0.1871519 0.10840831 -0.13258177 -0.06322388
000190 c2 1d 16 be 96 3d f6 bd 0a 8d 3f 3d f6 75 93 3d
       -0.14659789 -0.12023465 0.046765365 0.07200234
0001a0 05 4d 03 3d e6 b9 58 3a fb b9 64 3a 0b 17 8f 3d
       0.032055873 0.0008267447 0.0008725223 0.06986817
0001b0 53 81 08 be 1e 07 b0 3d 18 c5 57 bd e0 47 e9 3c
       -0.13330583 0.085951075 -0.052678198 0.028476655
0001c0 ca 06 c2 3b f9 06 c7 bd 4e ac e0 bd 97 52 ca bd
       0.0059212195 -0.09718127 -0.109703645 -0.09879034
0001d0 7b c1 f1 3d 92 e4 9a bd 95 93 75 be 93 e9 c7 bd
       0.118044816 -0.075631276 -0.2398208 -0.097613476
0001e0 b4 74 82 3d da 9a 69 3e a9 67 1f be 4a 22 32 be
       0.063699156 0.22812977 -0.15566887 -0.17395893
0001f0 3f 11 a0 3d 1d fd 62 3d 17 bb 53 bd 34 a6 91 be
       0.078157894 0.05541717 -0.051692095 -0.28447115
000200 19 4f 6f 3d 14 7b 0f 3e 9b 92 de bd 44 e2 79 3d
       0.058425043 0.14011794 -0.108678065 0.0610068
000210 c1 ed 10 be d6 59 b7 3e 7a 15 22 be 79 a2 08 3d
       -0.14153196 0.35810727 -0.15828505 0.03335807
000220 bb c7 99 3e 62 47 9f bb 1b 9b 06 be 02 46 6e 3d
       0.30035195 -0.0048608044 -0.13145106 0.058172233
000230 f6 ff 1c 3d 1c 73 92 3b 25 a6 85 bc 60 38 98 3b
       0.03833004 0.0044692885 -0.016314575 0.0046453923
000240 df 70 f2 bd a2 5f a0 3d 64 77 99 3d 27 3b bc 3d
       -0.11837935 0.078307405 0.07493475 0.0919097
000250 fd 1f ed 3d 38 77 63 3b ba 03 f1 bc 8d 5d 2d bd
       0.11578367 0.003470851 -0.029420722 -0.042325545
000260 63 88 5f 3d 7a 9e 06 be 04 bb bd bd c2 d0 4e 3e
       0.054573428 -0.13146392 -0.09264186 0.20196822
000270 60 02 96 bd 2f 90 cc bd 92 22 bb 3c f4 5a 79 3d
       -0.07324672 -0.09988438 0.022843633 0.060877755
000280 dd e8 3e 3e 70 67 e3 bd 12 f1 02 be 81 76 1f 3e
       0.18643518 -0.111037135 -0.12787274 0.1557255
000290 49 9b 62 3e 0b bc 4c be df f8 3f 3e 01 3d 63 be
       0.22129549 -0.19993608 0.1874728 -0.2219124
0002a0 68 23 9d 3e 7e 82 e2 bd d6 32 ef 3d 87 6c 33 3d
       0.30691075 -0.11060046 0.11679618 0.04380467
0002b0 12 37 7d be 5d 63 2c be 0c de df bd 67 d8 87 bc
       -0.24728039 -0.16834779 -0.10931024 -0.01658268
0002c0 ab 9f d5 3d 0d 55 13 3e 25 4b 41 3e b2 29 db bd
       0.10430845 0.14387913 0.18876322 -0.10701312
0002d0 bb f3 8e bd d1 a7 4b bd e5 e8 99 bc be 13 2e 3e
       -0.06980082 -0.04972059 -0.01878781 0.16999719
0002e0 03 98 6f be 55 54 c8 3d 25 11 90 3d df 35 9c bd
       -0.23397832 0.0978171 0.0703452 -0.076274626
0002f0 bc b1 9c 3d 0c 3a 50 3e 3d 90 14 3e 50 2c 8f bc
       0.07651088 0.20334643 0.14508148 -0.017477185
000300 4f d0 93 3d 20 1c 76 bd 8e 69 29 bd f8 ef 03 be
       0.07217466 -0.060085416 -0.04136043 -0.1288451
000310 ce 04 fd bd 9d e5 7e bd 16 ae 10 3e b9 07 c4 bd
       -0.12354432 -0.062230695 0.14128909 -0.095717855
000320 61 04 2e bd 8e cf 3e be ec 17 47 3d 09 a6 51 3c
       -0.042484645 -0.18633863 0.048606798 0.0127959335
000330 d0 2a 82 bc 07 8c 58 3d 25 50 6d 3e 42 f6 22 3d
       -0.015889555 0.052867915 0.23175104 0.03978563
000340 64 52 3e bd ba 2e 18 3d 58 a5 57 3c f6 9d 87 3e
       -0.046465293 0.037153937 0.01316198 0.26487702
000350 1b 90 6a bc 1f e6 a7 3d 68 3a 9a bd b9 1a 16 3e
       -0.014316584 0.08198189 -0.07530671 0.14658631
000360 fa e4 3f 3d 2d 3a 05 be b7 58 7e 3e e1 42 55 be
       0.04684923 -0.13010474 0.2483853 -0.20826294
000370 d9 c0 f2 bd b6 9b 46 3e a0 cd bf 3d cf f6 c7 3d
       -0.11853189 0.19395337 0.09365392 0.09763872
000380 a1 8a 86 bc d5 13 06 3d c3 7d 6d 3e 43 71 a2 3d
       -0.016423525 0.032733757 0.23192506 0.07931759
000390 9a 6c 85 3d 9f 00 f4 bc e1 b3 31 3e e4 bb 15 3e
       0.06514855 -0.029785452 0.17353775 0.14622456
0003a0 56 95 e5 bd cf 33 83 3d e6 3b c4 bd bb be ab bc
       -0.11210124 0.06406366 -0.09581737 -0.02096497
0003b0 60 a5 fd bd ae 18 98 3d 9a 68 81 bd 5e 2f 6b bd
       -0.123850584 0.07426582 -0.06318779 -0.05741822
0003c0 36 71 97 3d fe 58 b6 bc 21 d1 8d 3d cf dd e7 3b
       0.0739464 -0.022259232 0.06924654 0.007076002
0003d0 af 07 a9 3d 00 82 6f bd 6c 89 81 bd d5 52 13 be
       0.08253419 -0.058473587 -0.06325039 -0.14387067
0003e0 29 a8 22 bd aa b6 60 3e fd 97 a2 bd 78 25 61 3e
       -0.03971115 0.21944681 -0.07939146 0.2198695
0003f0 ee 05 29 bd 1f 69 2e bd e4 23 28 bc 65 7f 0d bd
       -0.04126542 -0.04258072 -0.010262463 -0.03454532

fc3.bias f4 [10]
000000 c6 da 0b be 74 e1 8a be 62 03 2a 3e 82 f5 f4 3b
       -0.13657674 -0.27125132 0.16602853 0.007475556
000010 5e 51 ec 3e d4 20 ca bd 53 45 da 3d c9 54 40 be
       0.46155828 -0.09869543 0.10657754 -0.18782343
000020 5f 87 81 3e bd 87 9a be
       0.25298592 -0.30181685
